Found 3764 files belonging to 7 classes.
Generated class weights for an imbalanced dataset: {0: 1.3772893772893773, 1: 1.0662885501595178, 2: 1.1489686783804431, 3: 0.840928152082751, 4: 0.8769679300291545, 5: 0.9591836734693877, 6: 0.9142857142857143}
Model: "sequential"
_________________________________________________________________
 Layer (type)                Output Shape              Param #   
=================================================================
 random_translation (Random  (None, 128, 128, 1)       0         
 Translation)                                                    
                                                                 
 random_brightness (RandomB  (None, 128, 128, 1)       0         
 rightness)                                                      
                                                                 
 random_contrast (RandomCon  (None, 128, 128, 1)       0         
 trast)                                                          
                                                                 
 rescaling (Rescaling)       (None, 128, 128, 1)       0         
                                                                 
 conv2d (Conv2D)             (None, 128, 128, 16)      160       
                                                                 
 max_pooling2d (MaxPooling2  (None, 64, 64, 16)        0         
 D)                                                              
                                                                 
 conv2d_1 (Conv2D)           (None, 64, 64, 32)        4640      
                                                                 
 max_pooling2d_1 (MaxPoolin  (None, 32, 32, 32)        0         
 g2D)                                                            
                                                                 
 conv2d_2 (Conv2D)           (None, 32, 32, 64)        18496     
                                                                 
 max_pooling2d_2 (MaxPoolin  (None, 16, 16, 64)        0         
 g2D)                                                            
                                                                 
 dropout (Dropout)           (None, 16, 16, 64)        0         
                                                                 
 flatten (Flatten)           (None, 16384)             0         
                                                                 
 dense (Dense)               (None, 128)               2097280   
                                                                 
 dense_1 (Dense)             (None, 7)                 903       
                                                                 
=================================================================
Total params: 2121479 (8.09 MB)
Trainable params: 2121479 (8.09 MB)
Non-trainable params: 0 (0.00 Byte)
_________________________________________________________________
Epoch 1/200
 1/94 [..............................] - ETA: 43:03 - loss: 1.8818 - categori
…
